notebook/AutogluonModels/ag-20231111_060933/models/NeuralNetFastAI_BAG_L1/S1F1/model-internals.pkl (torch, 164259 bytes, 16 tensors)

weight f4 [27]
0.61460537 0.7394656 0.7227992 0.9483822 1.1076552 0.6378883 0.6042763 0.7058645
0.8887211 1.1205887 0.73421174 0.78056914 0.78438604 0.9177575 1.2471942 0.62037766
0.6176213 0.88903546 0.8207697 0.98810714 0.6998913 0.7741632 0.87401235 0.86076313
1.0949847 1.4394022 1.2764056
00000000: c756 1d3f 9e4d 3d3f 5e09 393f 2dc9 723f
00000010: a5c7 8d3f a64c 233f dab1 1a3f 89b3 343f
00000020: 3a83 633f 736f 8f3f 4df5 3b3f 61d3 473f
00000030: 86cd 483f 28f2 6a3f 0fa4 9f3f 12d1 1e3f
00000040: 6e1c 1e3f d497 633f f71d 523f 97f4 7c3f
00000050: 142c 333f 8f2f 463f 46bf 5f3f f95a 5c3f
00000060: 7528 8c3f 553e b83f 4261 a33f

bias f4 [27]
-0.21555977 0.1099446 -0.14795938 0.1092062 -0.019341126 -0.29608208 0.02981082 0.14461008
-0.029455822 0.3723742 0.06335321 -0.15892622 -0.29228523 0.050754763 0.20767811 -0.7722059
-0.14950497 0.15838039 0.055839952 0.004546959 -0.16305977 -0.044851203 0.11684462 -0.048159014
-0.008901855 0.2570773 -0.15340881
00000000: b3bb 5cbe a22a e13d aa82 17be 80a7 df3d
00000010: 4871 9ebc 1298 97be d235 f43c aa14 143e
00000020: 564d f1bc d5a7 be3e 54bf 813d 8ebd 22be
00000030: 69a6 95be 3ae4 4f3d 92a9 543e 49af 45bf
00000040: d517 19be 782e 223e 6fb8 643d a8fe 943b
00000050: 24f9 26be e5b5 37bd 3b4c ef3d 6342 45bd
00000060: 16d9 11bc a39f 833e 3317 1dbe

running_mean f4 [27]
-0.0031155322 0.004190408 0.002466724 0.00031607103 0.00013951768 -0.011127827 0.011085124 0.0055600647
0.0055211815 0.0009769408 -0.004081737 0.010030143 0.0046810405 0.00030033517 -0.0032515055 -0.00410163
0.004934819 0.008217321 0.00016646937 -0.0040474893 -0.011455961 0.0069076866 0.00978161 0.0024262504
-0.00014417936 -0.0015098525 0.0025304942
00000000: f52d 4cbb b14f 893b c3a8 213b 56b6 a539
00000010: 7e4b 1239 7d51 36bc 619e 353c 3431 b63b
00000020: 07eb b43b b20c 803a 17c0 85bb 7855 243c
00000030: 6a63 993b 4e76 9d39 3617 55bb f766 86bb
00000040: 43b4 a13b f1a1 063c 488e 2e39 cda0 84bb
00000050: c8b1 3bbc e059 e23b 0c43 203c ba01 1f3b
00000060: da2e 17b9 3ee6 c5ba a6d6 253b

running_var f4 [27]
0.9975617 1.002595 1.001419 0.99230105 1.0072627 0.9935522 1.0025477 1.0033758
0.9968021 1.0043888 1.0008365 1.0152706 1.0018103 0.9938531 1.0038996 0.99325365
0.99894214 1.0122021 0.9931805 1.0027963 0.98445725 0.9941178 1.0114075 1.0056659
1.0011616 1.0076292 0.9988792
00000000: 3460 7f3f 0855 803f 7f2e 803f 7107 7e3f
00000010: fced 803f 7059 7e3f 7c53 803f 9e6e 803f
00000020: 6c2e 7f3f d08f 803f 691b 803f 63f4 813f
00000030: 523b 803f 286d 7e3f c87f 803f df45 7e3f
00000040: acba 7f3f d78f 813f 1441 7e3f a15b 803f
00000050: 6405 7c3f 817e 7e3f cd75 813f a9b9 803f
00000060: 1026 803f fef9 803f 8cb6 7f3f

weight f4 [200, 27]
-0.01751951 0.11409617 -0.21445999 0.050615296 -0.078916095 0.08197963 -0.08071271 0.16971488
-0.059133697 0.11661554 -0.083935656 -0.053691067 -0.2208007 -0.046742555 0.0029398906 -0.0024303205
0.032625597 0.15810044 -0.022938358 -0.09342123 0.15577242 0.07747584 -0.114716604 0.26700756
-0.04549948 0.15305014 0.34641373 -0.16589464 -0.16023831 -0.030688372 -0.060415704 0.18280523
-0.23328236 0.017294852 -0.032644928 -0.053462137 -0.0768171 0.17091163 0.2298183 0.13389175
0.17479487 -0.28207222 0.049286876 -0.12627868 -0.24065176 -0.13095178 0.12314011 0.073182836
0.035212565 -0.039150085 0.18769358 0.14992686 0.24909183 0.12598534 0.11771673 -0.23412465
0.10142065 -0.093057044 -0.13743083 -0.070742525 0.017774707 0.11625593 -0.07365846 -0.05834128
0.043565057 -0.06337872 0.028336996 0.14724791 0.17264299 0.19824009 -0.09840358 -0.02125106
0.08201694 0.09938306 0.18106423 0.21296468 0.009488358 -0.2310153 0.0016145282 -0.22263369
-0.3322241 0.10537018 0.16597033 -0.1036203 -0.0820019 0.11883632 -0.09778233 -0.047674567
0.21757266 -0.39719024 0.1397483 0.04357165 0.2069493 0.1320692 -0.15465756 -0.12822258
0.1850264 0.011878418 -0.2621969 -0.21810754 0.17744906 0.12431832 -0.05150225 -0.071347535
-0.03760663 -0.08176447 -0.15464512 -0.1596673 -0.08447545 0.12626815 -0.1546421 0.17425375
-0.042388532 0.11596072 0.15022287 -0.16696359 -0.0050297016 0.17231241 0.06458081 0.14723597
0.06653732 0.08994024 -0.32446244 0.052198797 -0.16987292 -0.11190829 0.01104883 -0.06989667
-0.027443921 -0.08972308 -0.028396836 0.09395447 -0.41053888 -0.032442532 0.12607509 -0.08631369
0.086030245 -0.052097514 0.013689442 0.2414166 0.18965675 0.12700723 0.18260366 -0.022921456
-0.21010901 0.02261412 0.07653732 -0.031251896 -0.10073908 -0.2270456 -0.16464873 -0.2696161
0.026249986 0.28663674 0.19523151 -0.0025012493 0.038600806 -0.21110666 -0.16869017 -0.07813622
-0.061267298 -0.01720616 -0.19316025 -0.09104488 -0.058079083 0.03166341 -0.046769947 0.056405984
-0.18260986 0.046311144 0.18838069 -0.105488226 0.20373926 0.16883086 0.017179094 0.2126857
-0.31706205 -0.05115366 0.105745 -0.18600947 0.08229489 0.06775807 0.16553727 0.0776497
0.15206535 0.11722188 -0.22714084 -0.061773557 -0.2078963 0.1383258 0.111778736 0.21880132
-0.1336987 -0.1849175 -0.122117065 -0.15943371 -0.04121254 0.11592463 -0.30544478 0.0411355
0.066053145 0.13011524 -0.11938837 -0.31237632 -0.037795655 0.049074583 -0.009783538 0.16889447
0.010225327 -0.019120013 -0.044352066 -0.07307265 0.1766669 0.045699332 0.15393078 0.006035395
-0.109108455 0.01048576 0.020910017 -0.25412557 -0.0077495133 0.20738068 0.1410451 -0.09053352
-0.23330265 0.13250087 -0.13362099 0.03981576 -0.17208701 0.06777884 -0.008850662 0.25606987
0.08584592 0.022481691 0.042948354 -0.121129386 0.18839647 -0.12595788 -0.1780087 0.14381011
-0.007603798 0.041632883 -0.006567959 -0.0071896794 0.12549606 -0.19025366 0.15314488 -0.12955686
0.010341156 -0.043275185 -0.02311349 -0.010104154 0.15082997 -0.059351422 -0.09838442 -0.13087292
00000000: 1385 8fbc 41ab e93d 669b 5bbe fc51 4f3d
00000010: c39e a1bd f0e4 a73d b54c a5bd bdc9 2d3e
00000020: 2d36 72bd 21d4 ee3d 75e6 abbd 2aeb 5bbd
00000030: 9419 62be 1f75 3fbd 2eab 403b 0346 1fbb
00000040: 6ba2 053d 15e5 213e 39e9 bbbc a153 bfbd
00000050: ce82 1f3e a7ab 9e3d 8af0 eabd 37b5 883e
00000060: aa5d 3abd 2db9 1c3e 245d b13e 49e0 29be
00000070: 8315 24be 2e66 fbbc 7576 77bd 4b31 3b3e
00000080: 92e1 6ebe efad 8d3c b0b6 05bd 1dfb 5abd
00000090: 4952 9dbd 7503 2f3e 7d55 6b3e eb1a 093e
000000a0: 6dfd 323e c56b 90be 09e1 493d 334f 01be
000000b0: 6a6d 76be 3918 06be e230 fc3d e2e0 953d
000000c0: 0d3b 103d d75b 20bd bf32 403e 6d86 193e
000000d0: ee11 7f3e 4d02 013e 7815 f13d 5fbe 6fbe
000000e0: a1b5 cf3d b194 bebd abba 0cbe 75e1 90bd
000000f0: 439c 913c 9717 ee3d 3fda 96bd 44f7 6ebd
00000100: 4671 323d b4cc 81bd fd22 e83c 28c8 163e
00000110: 53c9 303e 73ff 4a3e d187 c9bd b416 aebc
00000120: 7ff8 a73d 5989 cb3d e768 393e 6a13 5a3e
00000130: 0f75 1b3c 468f 6cbe 949e d33a 16fa 63be
00000140: 4719 aabe 52cc d73d 20f4 293e e136 d4bd
00000150: 9df0 a7bd 7560 f33d 1a42 c8bd 6846 43bd
00000160: 5ecb 5e3e 855c cbbe 2e1a 0f3e 3078 323d
00000170: 84ea 533e 263d 073e 8d5e 1ebe c84c 03be
00000180: 9077 3d3e b29d 423c ac3e 86be 9557 5fbe
00000190: 35b5 353e 9a9a fe3d 06f4 52bd a81e 92bd
000001a0: 6909 1abd 2174 a7bd 4a5b 1ebe d37f 23be
000001b0: 7701 adbd 704c 013e 805a 1ebe 936f 323e
000001c0: 999f 2dbd d07c ed3d 06d4 193e 81f8 2abe
000001d0: 32d0 a4bb aa72 303e f242 843d 07c5 163e
000001e0: b844 883d 9732 b83d f11f a6be 68ce 553d
000001f0: 2bf3 2dbe 2c30 e5bd 2706 353c fc25 8fbd
00000200: 13d2 e0bc bcc0 b7bd 7ba0 e8bc 336b c03d
00000210: 2732 d2be 76e2 04bd d419 013e 3bc5 b0bd
00000220: a030 b03d 3464 55bd ae49 603c ea35 773e
00000230: 6135 423e 2f0e 023e 74fc 3a3e c7c5 bbbc
00000240: d126 57be 3f41 b93c 99bf 9c3d fd01 00bd
00000250: 4a50 cebd a47e 68be ad99 28be 1f0b 8abe
00000260: 360a d73c 0dc2 923e c5ea 473e 00ec 23bb
00000270: e11b 1e3d 582c 58be 1ebd 2cbe e205 a0bd
00000280: 6bf3 7abd eff3 8cbc cdcb 45be bd75 babd
00000290: 55e4 6dbd 7eb1 013d d891 3fbd f609 673d
000002a0: 14fe 3abe c1b0 3d3d dee6 403e 360a d8bd
000002b0: 06a1 503e ffe1 2c3e 2cbb 8c3c 48ca 593e
000002c0: f555 a2be 8086 51bd d690 d83d 4479 3ebe
000002d0: 398a a83d bec4 8a3d 9a82 293e ce06 9f3d
000002e0: 05b7 1b3e 0612 f03d 9c97 68be 4506 7dbd
000002f0: c5e2 54be 47a5 0d3e 40ec e43d 740d 603e
00000300: 50e8 08be 035b 3dbe 8318 fabd 9742 23be
00000310: 7bce 28bd e469 ed3d 4263 9cbe b37d 283d
00000320: df46 873d ee3c 053e e481 f4bd caef 9fbe
00000330: 9ecf 1abd 6e02 493d 224b 20bc acf2 2c3e
00000340: 2188 273c 93a1 9cbc 83aa 35bd 1da7 95bd
00000350: 2be8 343e 392f 3b3d 08a0 1d3e 90c4 c53b
00000360: 4174 dfbd 77cc 2b3c 7c4b ab3c bf1c 82be
00000370: a1ef fdbb 9a5b 543e 206e 103e a369 b9bd
00000380: e4e6 6ebe 4fae 073e f1d3 08be da15 233d
00000390: 9437 30be a2cf 8a3d 5e02 11bc 971b 833e
000003a0: fccf af3d 862b b83c 9dea 2f3d af12 f8bd
000003b0: 01eb 403e 1afb 00be ea47 36be f542 133e
000003c0: 4829 f9bb 3e87 2a3d 0938 d7bb 6797 ebbb
000003d0: 0a82 003e dbd1 42be 03d2 1c3e 8eaa 04be
000003e0: f46d 293c 5241 31bd 8058 bdbc e58b 25bc
000003f0: 2c73 1a3e 7a1a 73bd c57d c9bd 8d03 06be

weight f4 [200]
1.0429904 0.9661143 1.0039655 0.9972611 0.8306767 0.91471666 1.086969 0.9068452
0.7454518 0.95574874 1.2125404 1.0226724 0.8980682 1.0419807 0.79797876 0.8896605
1.0709608 0.79862773 1.0479852 0.8850914 0.9673734 0.7915406 0.8653183 0.8687871
0.8282888 0.87868464 1.1352141 0.9194611 0.88053286 0.9371869 0.7637648 0.9075401
1.1282681 1.0405878 0.89583194 0.91348463 0.84666145 0.8726293 1.0629213 1.0626892
1.1019758 0.88982844 0.94413775 1.0147456 0.9894458 0.99339736 1.0204326 0.9065183
1.066318 0.94673145 0.83552325 0.9101825 0.9747541 0.9932218 1.1322895 0.8684077
1.2533741 1.0412229 0.827147 0.77059305 0.8979292 0.8987591 0.91870743 0.91791564
0.9543054 0.9991403 0.89337856 0.9055297 0.992592 0.97644454 1.1181731 0.89464384
1.1041476 1.0002651 0.9539804 1.1039214 1.0287702 1.1267939 0.94161826 0.80477476
1.0959786 0.9570172 0.90485525 1.0486786 1.1377801 1.1870954 1.0577599 0.9003693
1.0333625 0.93426305 1.0077833 0.904408 0.7383775 0.974349 0.9942432 0.82962316
1.2110728 1.1183149 1.1435926 0.85276556 0.938103 0.7252118 0.80717474 0.8981136
1.1416612 0.9649115 1.1366147 1.0872303 0.72676814 0.9245773 1.2223375 0.8354708
1.2278763 1.0078309 0.93888015 0.76606816 0.8187946 0.9519452 1.0403236 0.84522057
0.9491523 0.76848423 1.2051711 0.90287095 0.86406744 1.0330468 0.9913055 1.1131647
0.95114446 0.9837165 1.005821 1.0366482 1.0290759 1.38025 1.02736 1.0255746
0.9172214 0.9578756 1.074876 0.76739436 0.76766413 1.1280686 0.8392133 1.0053827
1.2103163 1.1435897 1.2686856 1.112965 0.882711 1.0429466 1.0138102 0.9477412
0.9870264 1.1335171 0.9736844 0.98135936 0.8526268 0.95615107 0.90692616 1.1212726
0.7783987 0.85681933 0.92387843 1.0135463 0.8182777 1.0183586 0.95201033 0.8283878
1.0776684 1.1422572 1.0676643 0.9418338 0.8570756 0.95531887 1.0753951 0.8240092
0.8603817 1.01235 1.0490417 1.0127387 0.9464995 0.872626 0.9752308 0.903673
1.0529186 1.0370057 0.9145811 0.88769895 1.0974522 1.1731074 0.8695884 1.0115119
0.89823794 1.0150067 1.0260015 1.0902356 1.001045 0.87695926 0.9902001 0.92141837
00000000: b680 853f 4453 773f f181 803f 814c 7f3f
00000010: 3aa7 543f df2a 6a3f cd21 8b3f 0227 683f
00000020: eed5 3e3f f3ab 743f 8634 9b3f eee6 823f
00000030: cce7 653f a05f 853f 5648 4c3f cac0 633f
00000040: 3e15 893f de72 4c3f 6124 863f 5a95 623f
00000050: c8a5 773f 68a2 4a3f 8085 5d3f d568 5e3f
00000060: bc0a 543f 7af1 603f b24e 913f cd61 6b3f
00000070: 9a6a 613f 7beb 6f3f 1786 433f 8c54 683f
00000080: 176b 903f fb31 853f 3e55 653f 21da 693f
00000090: cebe 583f a264 5f3f ce0d 883f 3306 883f
000000a0: 8b0d 8d3f cccb 633f 03b3 713f 2fe3 813f
000000b0: 524c 7d3f 4a4f 7e3f 899d 823f 9511 683f
000000c0: 1c7d 883f fe5c 723f dae4 553f b801 693f
000000d0: 7c89 793f c943 7e3f ddee 903f f84f 5e3f
000000e0: 906e a03f cb46 853f e8bf 533f 9645 453f
000000f0: b0de 653f 1415 663f 6930 6b3f 85fc 6a3f
00000100: 5c4d 743f a9c7 7f3f 75b4 643f cbd0 673f
00000110: 821a 7e3f 45f8 793f 4c20 8f3f 6107 653f
00000120: b554 8d3f b008 803f 0f38 743f 4c4d 8d3f
00000130: beae 833f c83a 903f e50d 713f b805 4e3f
00000140: 0749 8c3f 14ff 743f 98a4 673f 1a3b 863f
00000150: c7a2 913f bef2 973f ad64 873f 9a7e 663f
00000160: 3945 843f dd2b 6f3f 0bff 803f 4887 673f
00000170: 4f06 3d3f f06e 793f b986 7e3f 2f62 543f
00000180: 6f04 9b3f f124 8f3f 3e61 923f d84e 5a3f
00000190: 8527 703f 7ba7 393f 01a3 4e3f c6ea 653f
000001a0: f421 923f 7104 773f 977c 913f 5d2a 8b3f
000001b0: 7a0d 3a3f 19b1 6c3f 8e75 9c3f 6ae1 553f
000001c0: 0d2b 9d3f 9a00 813f 735a 703f 0b1d 443f
000001d0: 869c 513f aeb2 733f 5329 853f 6060 583f
000001e0: a5fb 723f 62bb 443f 0c43 9a3f 8d22 673f
000001f0: 8633 5d3f e13a 843f 32c6 7d3f 2e7c 8e3f
00000200: 347e 733f d8d4 7b3f bebe 803f e3b0 843f
00000210: c2b8 833f 08ac b03f 8880 833f 0746 833f
00000220: 06cf 6a3f 5637 753f 8995 893f f573 443f
00000230: a385 443f 8d64 903f afd6 563f 61b0 803f
00000240: a5eb 9a3f 2661 923f 4a64 a23f a375 8e3f
00000250: 59f9 613f 467f 853f 88c4 813f 2b9f 723f
00000260: c3ad 7c3f 1717 913f 6143 793f 5e3a 7b3f
00000270: c045 5a3f 51c6 743f 502c 683f dc85 8f3f
00000280: 2345 473f 8358 5b3f 4c83 6c3f e3bb 813f
00000290: a67a 513f 9359 823f f3b6 733f 3911 543f
000002a0: 0af1 893f 7c35 923f 39a9 883f 051c 713f
000002b0: 4e69 5b3f c78f 743f 8ca6 893f 44f2 523f
000002c0: fa41 5c3f af94 813f 0047 863f 6ca1 813f
000002d0: cb4d 723f 6b64 5f3f baa8 793f 1d57 673f
000002e0: 09c6 863f 9abc 843f fd21 6a3f 3d40 633f
000002f0: 5079 8c3f 6228 963f 589d 5e3f 3979 813f
00000300: ecf2 653f bdeb 813f 0454 833f d78c 8b3f
00000310: 3e22 803f 6780 603f c17d 7d3f 13e2 6b3f

bias f4 [200]
0.025949914 0.6173426 0.46405727 0.36163962 -0.038783222 -0.048778296 0.20486504 -0.203145
0.04362822 -0.013753698 -0.02054416 -0.2007013 -0.03266946 0.3082391 0.15410714 0.4494352
0.2621171 -0.019013727 -0.1047208 -0.16386683 0.07451392 -0.09419715 0.10425491 0.05107691
0.36528748 -0.20475827 0.23310308 0.07947316 0.00071811833 0.45432636 0.2617613 0.09388109
-0.013207936 -0.0378349 0.13947932 -0.042231265 0.22732763 0.0684711 0.3013067 0.022599623
0.2378191 0.31716713 -0.12251749 -0.0836975 0.33448985 0.010704687 0.15121402 -0.00088866625
0.31445807 0.3134379 0.27219865 -0.020674411 -0.05894797 0.014962267 0.3242446 0.25278834
0.015871692 -0.04542895 -0.42266065 -0.20663993 0.08527219 0.2787825 0.41507867 0.09266721
0.5291522 0.35639653 0.009769189 0.22171633 0.16264679 0.09242854 -0.009639385 0.026466157
0.16097948 -0.41582662 0.17213994 0.28787962 0.10360281 -0.058639944 0.17287372 -0.033094563
-0.17072386 -0.0048399246 -0.23018138 0.09038615 -0.11405341 0.046743296 -0.14111233 0.21448041
0.3257121 -0.0023337395 0.3825132 0.35705578 0.25950745 -0.23298785 0.42918545 -0.05231473
0.24498904 -0.02875998 0.04565544 -0.02948973 -0.007839231 0.039314635 0.2701574 -0.09108886
0.30065706 -0.16195041 0.035855122 0.1677784 0.667178 0.22561191 0.06490954 -0.02493174
0.01654111 -0.1639519 -0.13838072 0.40274933 0.4871508 0.51115215 0.3197449 0.3211595
0.32925543 0.23055379 -0.07579328 0.1511332 -0.16324 0.29852232 0.24220708 0.19007735
0.1515939 -0.16129492 0.17730275 0.13255803 -0.032771584 0.13077764 -0.059817776 -0.07019049
0.2688165 0.18873882 0.08686489 0.06572655 0.06269965 0.015245249 0.35738367 -0.14867103
0.020521289 0.054883324 0.01579988 -0.16669877 0.073758096 0.07028468 0.12677948 0.24783473
0.23491073 0.08019496 0.24265578 0.29966357 0.215166 0.36709425 0.03544617 -0.010454221
0.3196215 -0.16274296 0.104655266 0.07789365 0.47168013 0.062495627 0.06675874 0.01942067
0.08077567 0.12849812 0.04529725 -0.23256476 -0.041800812 0.16908582 0.32807872 -0.18664858
0.19132744 0.11141997 0.23678337 0.2031637 0.3269141 0.12652937 0.11977477 0.15111934
0.080003746 0.15178527 -0.15728518 0.059123885 0.22985321 0.12872338 0.2198549 0.09963064
-0.11027624 -0.04233978 -0.21308032 0.20718123 0.1412291 0.2786961 -0.24329612 0.08078745
00000000: ea94 d43c 2a0a 1e3f ea98 ed3e d428 b93e
00000010: 28db 1ebd c0cb 47bd 24c8 513e 3e05 50be
00000020: 81b3 323d 3157 61bc 3a4c a8bc a484 4dbe
00000030: 69d0 05bd 84d1 9d3e 43ce 1d3e 5f1c e63e
00000040: 3634 863e adc2 9bbc dc77 d6bd b5cc 27be
00000050: c19a 983d 6fea c0bd 9983 d53d 0636 513d
00000060: f606 bb3e 27ac 51be 93b2 6e3e d3c2 a23d
00000070: 1b40 3c3a 779d e83e 9405 863e bb44 c03d
00000080: 1966 58bc c5f8 1abd abd3 0e3e b1fa 2cbd
00000090: 93c8 683e 933a 8c3d df44 9a3e d822 b93c
000000a0: da86 733e bb63 a23e 73ea fabd 9869 abbd
000000b0: 4142 ab3e b662 2f3c d9d7 1a3e 62f5 68ba
000000c0: a600 a13e ef7a a03e 9f5d 8b3e 625d a9bc
000000d0: 6d73 71bd 4c24 753c 6303 a63e 796d 813e
000000e0: 5a05 823c b513 3abd fa66 d8be 6b99 53be
000000f0: 30a3 ae3d 94bc 8e3e 3185 d43e 4ec8 bd3d
00000100: 8576 073f 9b79 b63e f30e 203c 9b09 633e
00000110: e18c 263e 2d4b bd3d 83ee 1dbc 8ecf d83c
00000120: ced7 243e 3ae7 d4be 7445 303e f564 933e
00000130: b62d d43d 7030 70bd cf05 313e 2a8e 07bd
00000140: 3cd2 2ebe 3b98 9ebb abb4 6bbe 601c b93d
00000150: d694 e9bd e675 3f3d c07f 10be c1a0 5b3e
00000160: bdc3 a63e a7f1 18bb c5d8 c33e 04d0 b63e
00000170: 29de 843e 5e94 6ebe 32be db3e f847 56bd
00000180: 68de 7a3e 0d9a ebbc 3301 3b3d 7294 f1bc
00000190: 1e70 00bc 6208 213d 1252 8a3e cc8c babd
000001a0: b9ef 993e 54d6 25be d2dc 123d 1ace 2b3e
000001b0: 2dcc 2a3f cf06 673e 4bef 843d a63d ccbc
000001c0: 3981 873c 02e3 27be adb3 0dbe 2935 ce3e
000001d0: d46b f93e deda 023f 9bb5 a33e 056f a43e
000001e0: 2b94 a83e 4b16 6c3e 8239 9bbd a9c2 1a3e
000001f0: 6328 27be ebd7 983e 2205 783e a3a3 423e
00000200: 6e3b 1b3e 7f2a 25be da8e 353e 4bbd 073e
00000210: 7f3b 06bd 93ea 053e 7c03 75bd 08c0 8fbd
00000220: 51a2 893e c044 413e 38e6 b13d a49b 863d
00000230: ad68 803d 35c7 793c fefa b63e 383d 18be
00000240: 431c a83c 56cd 603d c06e 813c 15b3 2abe
00000250: 7c0e 973d 6af1 8f3d 7bd2 013e 63c8 7d3e
00000260: 708c 703e 413d a43d c27a 783e 816d 993e
00000270: 7a54 5c3e c7f3 bb3e 0130 113d 2e48 2bbc
00000280: 6ea5 a33e 17a6 26be 8055 d63d b586 9f3d
00000290: 0f80 f13e 6afb 7f3d ceb8 883d 1918 9f3c
000002a0: b76d a53d 0395 033e 9c89 393d 7525 6ebe
000002b0: 5437 2bbd d524 2d3e eff9 a73e ce20 3fbe
000002c0: 57eb 433e 2730 e43d 5777 723e 250a 503e
000002d0: 4961 a73e ea90 013e 7a4c f53d 07bf 1a3e
000002e0: 01d9 a33d 996d 1b3e 5e0f 21be e32b 723d
000002f0: a45e 6b3e 10d0 033e a521 613e 260b cc3d
00000300: 82d8 e1bd 7a6c 2dbd ba31 5abe 5127 543e
00000310: 5c9e 103e 41b1 8e3e 9e22 79be e473 a53d

running_mean f4 [200]
0.28593823 0.18254443 0.18794592 0.2624851 0.26484647 0.15851294 0.26574984 0.21459298
0.16778629 0.34685293 0.2800534 0.27455828 0.22096723 0.22942545 0.35525507 0.40852126
0.253375 0.17820759 0.27406335 0.3686952 0.20533693 0.24583928 0.11029888 0.2115642
0.42105597 0.35127136 0.12114404 0.09831934 0.36704203 0.21662807 0.22752836 0.18359517
0.25550836 0.22273108 0.3033928 0.43547434 0.14260519 0.24715047 0.108676895 0.30053452
0.16741583 0.28501576 0.35232398 0.20404038 0.28390712 0.05976527 0.45726115 0.16508241
0.13911451 0.31065962 0.1487537 0.16260034 0.19524454 0.22081742 0.3338413 0.20596239
0.27358642 0.34453014 0.2422212 0.16394792 0.36618593 0.11341812 0.31560656 0.20497297
0.12471022 0.2399098 0.18834712 0.26754683 0.24193983 0.22240497 0.41121024 0.12722583
0.21642339 0.1917781 0.1841877 0.21574377 0.073023446 0.35699132 0.22345586 0.26560485
0.28974766 0.1808023 0.12516445 0.14072904 0.19115439 0.22617006 0.20452672 0.2933745
0.20804062 0.3371458 0.21977603 0.32382 0.2798039 0.20934276 0.18872744 0.12344926
0.29131606 0.25867772 0.13542241 0.28113332 0.30243415 0.2842478 0.23914924 0.28754106
0.16455613 0.076254636 0.24793495 0.23375158 0.43044475 0.17751111 0.20283137 0.25057927
0.2378765 0.23523134 0.11110382 0.23442411 0.27860332 0.17827348 0.28738686 0.29565203
0.34371197 0.32061505 0.17443259 0.3499897 0.27697796 0.28701425 0.34290698 0.15281528
0.23335403 0.36421365 0.25733694 0.13291553 0.37065518 0.18908364 0.27444765 0.10260198
0.17734896 0.24076654 0.19923112 0.08740724 0.1242613 0.26448366 0.21013847 0.20320745
0.1394999 0.30482736 0.17518964 0.30518484 0.09955875 0.060409144 0.12573689 0.14460893
0.25769016 0.24943411 0.19463673 0.16385879 0.16653131 0.2187219 0.1710775 0.20139879
0.16405998 0.30412045 0.2627609 0.15337163 0.28154334 0.20699659 0.099479094 0.20048258
0.3643468 0.10907984 0.17480448 0.09895714 0.2224167 0.3412821 0.19605505 0.30228156
0.27447307 0.2279238 0.131436 0.1489771 0.22885378 0.24489745 0.24945655 0.23516291
0.036590606 0.14342737 0.38242498 0.2235278 0.11071639 0.1720253 0.17938878 0.29633182
0.2582186 0.2398452 0.25068423 0.16189124 0.33756602 0.34192607 0.22597176 0.1091849
00000000: 7f66 923e edec 3a3e e574 403e 7264 863e
00000010: f599 873e 3751 223e 5d10 883e 43be 5b3e
00000020: 2bd0 2b3e b596 b13e 2963 8f3e e792 8c3e
00000030: 3c45 623e 81ee 6a3e fee3 b53e b329 d13e
00000040: 5eba 813e 0d7c 363e 0852 8c3e 9ec5 bc3e
00000050: d843 523e 4bbd 7b3e 61e4 e13d 49a4 583e
00000060: a694 d73e d7d9 b33e 5e1a f83d a65b c93d
00000070: efec bb3e c0d3 5d3e 32fd 683e 5f00 3c3e
00000080: fed1 823e 9e13 643e 4d56 9b3e 7ef6 de3e
00000090: 1807 123e 0315 7d3e fe91 de3d a9df 993e
000000a0: 0e6f 2b3e 96ed 913e cf63 b43e f6ef 503e
000000b0: 465c 913e 6ecc 743d 221e ea3e 5d0b 293e
000000c0: 0974 0e3e c70e 9f3e e452 183e b480 263e
000000d0: 2fee 473e f61d 623e 3fed aa3e cee7 523e
000000e0: 8513 8c3e 4166 b03e d608 783e f7e1 273e
000000f0: b97c bb3e c247 e83d 2f97 a13e 6fe4 513e
00000100: 1268 ff3d eaaa 753e 11de 403e e6fb 883e
00000110: 13bf 773e 21be 633e 268a d23e 7d47 023e
00000120: 189e 5d3e 7a61 443e b39b 3c3e efeb 5c3e
00000130: 518d 953d 91c7 b63e 9dd1 643e 5cfd 873e
00000140: ce59 943e 3d24 393e 1c2b 003e 461b 103e
00000150: fabd 433e 2099 673e 746f 513e 2f35 963e
00000160: 9a08 553e 609e ac3e f80c 613e bccb a53e
00000170: 7542 8f3e f35d 563e c441 413e f7d2 fc3d
00000180: 6127 953e 6871 843e 2cac 0a3e b5f0 8f3e
00000190: a6d8 9a3e ed88 913e 8ae3 743e 9538 933e
000001a0: 6781 283e 642b 9c3d a9e2 7d3e 935c 6f3e
000001b0: 4163 dc3e 79c5 353e 07b3 4f3e ed4b 803e
000001c0: e695 733e 7ce0 703e 668a e33d e00c 703e
000001d0: 18a5 8e3e 538d 363e 5f24 933e b45f 973e
000001e0: 04fb af3e a827 a43e 759e 323e da31 b33e
000001f0: 0ed0 8d3e 88f3 923e 8191 af3e 9c7b 1c3e
00000200: 5cf4 6e3e 367a ba3e abc1 833e 021b 083e
00000210: 84c6 bd3e 249f 413e 6784 8c3e fd20 d23d
00000220: f79a 353e 818b 763e 3e03 4c3e 9102 b33d
00000230: b57c fe3d 676a 873e 8a2e 573e 9d15 503e
00000240: 10d9 0e3e 5512 9c3e ea64 333e 3041 9c3e
00000250: 75e5 cb3d 946f 773d 2cc1 003e 5d14 143e
00000260: f7ef 833e a86b 7f3e da4e 473e 99ca 273e
00000270: 2f87 2a3e a2f8 5f3e f12e 2f3e 7c3b 4e3e
00000280: 57ff 273e adb5 9b3e 9988 863e 740d 1d3e
00000290: 7326 903e eaf6 533e b2bb cb3d 4e4b 4d3e
000002a0: aa8b ba3e 4065 df3d f2ff 323e 0baa ca3d
000002b0: 34c1 633e 87bc ae3e a8c2 483e a6c4 9a3e
000002c0: bc87 8c3e db64 693e 2997 063e 748d 183e
000002d0: a558 6a3e 66c6 7a3e 8a71 7f3e 8cce 703e
000002e0: 08e0 153d a0de 123e 35cd c33e 79e4 643e
000002f0: 46bf e23d 6627 303e b1b1 373e ceb8 973e
00000300: 3a35 843e fb99 753e af59 803e d1c6 253e
00000310: 74d5 ac3e ef10 af3e 2465 673e 559c df3d

running_var f4 [200]
0.12169517 0.08043346 0.10366613 0.1546089 0.119373366 0.051235225 0.17750125 0.09368129
0.0697741 0.14348197 0.15761848 0.117132545 0.15873995 0.13674961 0.23778135 0.33046353
0.092898905 0.08384468 0.16748492 0.24931185 0.08905188 0.1679518 0.04568179 0.11333725
0.55907285 0.2272932 0.058755793 0.07309566 0.23338753 0.08879505 0.11156884 0.14221762
0.15163857 0.10573898 0.17229167 0.16402914 0.0647401 0.11503656 0.039539058 0.16091247
0.06817365 0.14764374 0.22076711 0.08920989 0.16715334 0.020564388 0.31907007 0.0596291
0.0562822 0.1547378 0.077810034 0.10770065 0.11146316 0.08639702 0.19455288 0.064509735
0.12269336 0.22935511 0.08299244 0.063693635 0.30757642 0.03925406 0.17147894 0.096944235
0.04921166 0.13540265 0.06576148 0.13234614 0.1291842 0.10468079 0.2569425 0.047717586
0.1129566 0.07139553 0.11739445 0.10165969 0.025363818 0.19924214 0.136772 0.21180122
0.14497386 0.06011557 0.05466356 0.050382968 0.08298763 0.11777851 0.10441921 0.1664329
0.072439425 0.1308398 0.13876611 0.15610464 0.20718387 0.07750672 0.064236134 0.04799838
0.16875748 0.12688293 0.052948326 0.17474201 0.12045561 0.2164345 0.14420173 0.12579492
0.068318605 0.022606641 0.119669475 0.10517949 0.38682768 0.087897785 0.10611714 0.124897785
0.12540673 0.11360349 0.05800899 0.1585486 0.26148832 0.07903181 0.14976734 0.37170404
0.33656916 0.4117337 0.08581775 0.25990194 0.14428556 0.12533867 0.15128194 0.075099565
0.11474676 0.16568136 0.1194922 0.0593772 0.334252 0.09758036 0.14206597 0.030723475
0.08119699 0.13649608 0.12787512 0.02553426 0.039522912 0.13876195 0.16679977 0.14958723
0.05770993 0.20841601 0.09170664 0.1452189 0.037656628 0.017434157 0.044828586 0.045052737
0.10029521 0.11871621 0.08631749 0.09641155 0.062666185 0.07784227 0.075475395 0.104093224
0.08876572 0.17902839 0.10972273 0.067443855 0.1504127 0.13117293 0.029315714 0.09782761
0.15101935 0.04393805 0.0781484 0.06015371 0.09893052 0.16187005 0.103851795 0.122898936
0.12944962 0.111715436 0.049109276 0.055821832 0.11763186 0.13747938 0.19545875 0.14442272
0.0108683 0.056169953 0.26282838 0.12826905 0.049076736 0.08133436 0.116791606 0.14695938
0.1709822 0.15049331 0.12266526 0.0965971 0.17129247 0.22388321 0.086984284 0.056052256
00000000: 513b f93d 4cba a43d e84e d43d cc51 1e3e
00000010: 067a f43d 07dc 513d e3c2 353e fadb bf3d
00000020: b9e5 8e3d f0ec 123e bd66 213e 30e3 ef3d
00000030: ba8c 223e 1708 0c3e f47c 733e 8432 a93e
00000040: c841 be3d c2b6 ab3d 2b81 2b3e 9b4b 7f3e
00000050: d560 b63d 8ffb 2b3e d41c 3b3d 5c1d e83d
00000060: 661f 0f3f 8cbf 683e eaa9 703d 2db3 953d
00000070: 24fd 6e3e 2eda b53d 347e e43d 7fa1 113e
00000080: 2447 1b3e ae8d d83d 3a6d 303e 41f7 273e
00000090: 7596 843d 4a98 eb3d b5f3 213d 3dc6 243e
000000a0: a09e 8b3d ec2f 173e c610 623e adb3 b63d
000000b0: 3f2a 2b3e a676 a83c 275d a33e a53d 743d
000000c0: 2a88 663d 9673 1e3e de5a 9f3d 2992 dc3d
000000d0: cc46 e43d ecf0 b03d df38 473e ae1d 843d
000000e0: a846 fb3d 11dc 6a3e f1f7 a93d cf71 823d
000000f0: a87a 9d3e ddc8 203d 2d98 2f3e b38a c63d
00000100: 2a92 493d fea6 0a3e f4ad 863d bf85 073e
00000110: dd48 043e e262 d63d f88d 833e 8473 433d
00000120: ca55 e73d d237 923d 806c f03d f532 d03d
00000130: c8c7 cf3c 2206 4c3e f60d 0c3e 6be2 583e
00000140: 0774 143e be3b 763d e6e6 5f3d 5f5e 4e3d
00000150: 6bf5 a93d dc35 f13d bdd9 d53d 636d 2a3e
00000160: 1f5b 943d defa 053e b418 0e3e e5d9 1f3e
00000170: 0228 543e d8bb 9e3d 3c8e 833d f399 443d
00000180: c3ce 2c3e 99ed 013e 58e0 583d 92ef 323e
00000190: 6eb1 f63d 01a1 5d3e 9ea9 133e 62d0 003e
000001a0: a0ea 8b3d 9031 b93c 4515 f53d 5868 d73d
000001b0: 470e c63e c103 b43d f153 d93d 69ca ff3d
000001c0: 9f6a 003e f2a8 e83d d69a 6d3d 905a 223e
000001d0: cce1 853e 6edb a13d 9c5c 193e fe4f be3e
000001e0: cb52 ac3e c2ce d23e 37c1 af3d de11 853e
000001f0: 98bf 133e c858 003e a7e9 1a3e cdcd 993d
00000200: 5900 eb3d 60a8 293e 54b8 f43d 8235 733d
00000210: 1423 ab3e 36d8 c73d be79 113e ccaf fb3c
00000220: 9c4a a63d a1c5 0b3e b2f1 023e 392d d13c
00000230: c7e2 213d 9d17 0e3e 8fcd 2a3e 652d 193e
00000240: 3f61 6c3d 026b 553e b1d0 bb3d 43b4 143e
00000250: d63d 1a3d 14d2 8e3c 2e9e 373d 3889 383d
00000260: 9367 cd3d 7c21 f33d 39c7 b03d 6b73 c53d
00000270: 2157 803d c56b 9f3d d892 9a3d d42e d53d
00000280: cdca b53d 3853 373e 50b6 e03d 0120 8a3d
00000290: c905 1a3e 3252 063e 8227 f03c d859 c83d
000002a0: d1a4 1a3e 62f8 333d 450c a03d bd63 763d
000002b0: 169c ca3d 43c1 253e 40b0 d43d 70b2 fb3d
000002c0: 718e 043e 10cb e43d cf26 493d 6fa5 643d
000002d0: f9e8 f03d 65c7 0c3e 5726 483e 8de3 133e
000002e0: f410 323c 7712 663d 7191 863e f658 033e
000002f0: b004 493d a192 a63d 7030 ef3d 857c 163e
00000300: f515 2f3e eb1a 1a3e ed37 fb3d b3d4 c53d
00000310: 4b67 2f3e a441 653e d124 b23d 0d97 653d

weight f4 [100, 200]
0.055403493 -0.10368111 -0.14959022 0.049103823 0.010440446 -0.003336652 -0.03756956 -0.03240622
0.000901553 0.06597904 -0.021977272 -0.17052647 0.010397736 -0.07931978 0.017088652 -0.049202237
-0.12621348 0.053702928 -0.05992335 0.060480103 -0.019874057 0.0048020566 -0.0418066 0.13081722
-0.10039587 -0.00615299 0.038553853 0.0035982688 -0.00776832 0.080602035 0.060497105 -0.10584178
-0.029397605 -0.047848325 0.10829257 0.08886237 0.06686239 -0.0018959832 -0.06825199 -0.067969695
-0.21926537 -0.033816557 0.03575904 0.040363703 -0.03520505 -0.06847361 0.09496559 -0.05035244
-0.17028765 -0.005734981 0.010703333 -0.094381824 -0.06560389 0.10299193 -0.010097882 0.027235793
-0.030205531 -0.038177688 -0.01919557 0.07507343 0.08567433 -0.0040962407 -0.012400515 -0.056300536
0.0070171105 -0.13207236 -0.053555578 -0.06798693 -0.00026812794 -0.0065884143 0.019660484 0.08054369
-0.077720106 0.12994614 -0.00060650706 -0.104504734 0.021703137 0.06427166 0.026104 -0.08976848
-0.033107158 -0.19470225 0.032835145 -0.059527215 -0.07566662 -0.03804056 0.016429182 -0.00033344908
0.0056936108 0.1353735 -0.064821586 -0.0041535595 0.0015905551 -0.16182986 0.007756868 0.060312428
-0.045511253 0.00906411 0.05573734 0.07664979 -0.08740174 0.08724371 0.05496897 -0.05661759
-0.06166888 0.02693973 -0.08736046 -0.03766439 -0.028298734 -0.021559248 -0.07159267 -0.0034846228
-0.2063524 -0.077804856 0.0110086575 -0.070003495 -0.048080817 -0.0192892 -0.17066124 -0.05928576
-0.04870478 0.025693752 -0.052782573 0.013832209 0.1138804 -0.023019653 -0.004253082 -0.053256933
-0.02135348 0.08591488 -0.09068811 -0.053440843 -0.03663351 -0.038150955 -0.011681373 -0.0819539
-0.042932864 0.09312858 -0.016935548 0.052690305 0.012558576 0.004537051 -0.001411896 -0.04153279
-0.081726156 -0.14670122 -0.035205062 0.021044634 -0.036513038 -0.106869265 -0.00038495054 -0.12707315
-0.072560035 -0.17512028 -0.060478628 0.038632333 -0.0003767721 -0.05204916 0.034590922 -0.0024396682
-0.036808588 -0.10368183 -0.002637616 -0.07422399 0.047198772 -0.01560846 0.062013216 -0.013834302
-0.019943938 0.15997168 -0.026161168 0.040311314 -0.07529565 -0.030827329 -0.1607131 0.037190553
-0.0073277154 -0.059842486 0.022782886 -0.035732936 0.027443916 0.02894867 -0.048694417 0.018096328
0.032579932 -0.004508056 -0.032284297 0.010239877 -0.11647885 -0.10808836 -0.005820711 -0.023590613
0.05643617 0.09044149 0.087071046 -0.17254062 0.026210615 0.0145624755 -0.17417227 0.045679506
-0.0465495 -0.15189222 0.06467792 0.0101393 -0.05534432 0.041051116 0.06457871 -0.017357549
0.021096036 -0.022926867 -0.16556536 -0.044549655 0.011717359 -0.13191079 -0.06780535 -0.050107714
-0.030316824 0.07836325 -0.064842775 -0.0212931 -0.06464325 -0.02552249 0.050189987 -0.036851335
-0.06331961 0.006726337 -0.054337326 0.0386873 -0.10036219 -0.057958115 0.013943568 0.080260575
0.088882186 0.1540379 -0.012941422 -0.061241515 -0.03439131 0.028299728 -0.05983373 -0.11298007
0.06952289 -0.04224639 0.027571594 -0.14101386 0.001937452 -0.011768011 -0.030875204 0.09640045
-0.029853106 -0.17567341 0.058009524 -0.014304095 -0.018071385 -0.00024654536 -0.16149019 0.025325349
00000000: c6ee 623d c356 d4bd 2e2e 19be 1721 493d
00000010: 680e 2b3c bbab 5abb 8ae2 19bd 62bc 04bd
00000020: 3356 6c3a 0520 873d ae09 b4bc 7e9e 2ebe
00000030: 445b 2a3c 6972 a2bd 80fd 8b3c 4988 49bd
00000040: 1b3e 01be 9af7 5b3d 3072 75bd fcb9 773d
00000050: ebce a2bc 925a 9d3b 663d 2bbd f3f4 053e
00000060: 5a9c cdbd 059f c9bb a5ea 1d3d efd0 6b3b
00000070: 648d febb ae12 a53d d0cb 773d 93c3 d8bd
00000080: 3fd3 f0bc 9bfc 43bd 7fc8 dd3d 79fd b53d
00000090: 26ef 883d a482 f8ba b3c7 8bbd b233 8bbd
000000a0: 1a87 60be 3b83 0abd 1278 123d 6954 253d
000000b0: 2c33 10bd e43b 8cbd 527d c23d 5c3e 4ebd
000000c0: e35f 2ebe 82ec bbbb 085d 2f3c 424b c1bd
000000d0: 555b 86bd 6fed d23d 9671 25bc 991d df3c
000000e0: 9771 f7bc 3560 1cbd 0740 9dbc 19c0 993d
000000f0: 0676 af3d c239 86bb 882b 4bbc 649b 66bd
00000100: caef e53b fa3d 07be 185d 5bbd bb3c 8bbd
00000110: 8693 8cb9 a0e3 d7bb 060f a13c 17f4 a43d
00000120: b82b 9fbd 9a10 053e 00fe 1eba 9406 d6bd
00000130: c7ca b13c dca0 833d 0ed8 d53c 89d8 b7bd
00000140: 5f9b 07bd 0760 47be 257e 063d cfd2 73bd
00000150: 1af7 9abd 6bd0 1bbd 7e96 863c c7d2 aeb9
00000160: 7891 ba3b 5a9f 0a3e 2ec1 84bd 951a 88bb
00000170: 2c7a d03a bab6 25be 532d fe3b 2a0a 773d
00000180: 026a 3abd a281 143c d64c 643d 91fa 9c3d
00000190: afff b2bd d5ac b23d 2527 613d d9e7 67bd
000001a0: 8298 7cbd b5b0 dc3c 0aea b2bd fa45 1abd
000001b0: bfd2 e7bc 059d b0bc 2e9f 92bd 455e 64bb
000001c0: 0b4e 53be 2758 9fbd a85d 343c fe5d 8fbd
000001d0: 64f0 44bd 6204 9ebc d2c1 2ebe a0d5 72bd
000001e0: aa7e 47bd b47b d23c 8a32 58bd 7da0 623c
000001f0: 213a e93d b693 bcbc 705d 8bbb f123 5abd
00000200: 7eed aebc 24f4 af3d b0ba b9bd c9e4 5abd
00000210: 050d 16bd 2d44 1cbd 3b63 3fbc 72d7 a7bd
00000220: 5fda 2fbd 32ba be3d 6bbc 8abc cad1 573d
00000230: 7cc2 4d3c 8bab 943b 5e0f b9ba 491e 2abd
00000240: 0b60 a7bd d838 16be 2f33 10bd cc65 ac3c
00000250: b28e 15bd 46de dabd 30d3 c9b9 771f 02be
00000260: 5b9a 94bd bb52 33be 70b8 77bd f03c 1e3d
00000270: 7f89 c5b9 8031 55bd 36af 0d3d d7e2 1fbb
00000280: 9ac4 16bd 2457 d4bd dadb 2cbb bf02 98bd
00000290: 8053 413d a0ba 7fbc 9201 7e3d 45a9 62bc
000002a0: 7861 a3bc 9ecf 233e f24f d6bc 7a1d 253d
000002b0: 9b34 9abd 9889 fcbc fa91 24be 1f55 183d
000002c0: 551d f0bb 651d 75bd 2da3 ba3c b35c 12bd
000002d0: 10d2 e03c c325 ed3c cc73 47bd c03e 943c
000002e0: 8972 053d 51b8 93bb 8a3c 04bd 28c5 273c
000002f0: 778c eebd 6e5d ddbd aabb bebb 1a41 c1bc
00000300: 9d29 673d 6339 b93d 4e52 b23d 7dae 30be
00000310: a5b7 d63c 7397 6e3c 375a 32be 6f1a 3b3d
00000320: b0aa 3ebd a289 1bbe db75 843d 4e1f 263c
00000330: bab0 62bd 3725 283d d841 843d 6b31 8ebc
00000340: 98d1 ac3c 20d1 bbbc f789 29be b379 36bd
00000350: 2afa 3f3c 9f13 07be 88dd 8abd bf3d 4dbd
00000360: fd5a f8bc e97c a03d 4acc 84bd de6e aebc
00000370: ae63 84bd 8a14 d1bc 0494 4d3d 6df1 16bd
00000380: b6ad 81bd 9b68 dc3b d190 5ebd 9376 1e3d
00000390: b18a cdbd 7d65 6dbd 9073 643c a85f a43d
000003a0: dd07 b63d 1cbc 1d3e 4208 54bc 62d8 7abd
000003b0: e7dd 0cbd d5d4 e73c 3714 75bd 1862 e7bd
000003c0: 0462 8e3d 8d0a 2dbd d3dd e13c f065 10be
000003d0: 1af2 fd3a 9ece 40bc ffed fcbc 996d c53d
000003e0: 808e f4bc bbe3 33be 659b 6d3d b95b 6abc
000003f0: 710a 94bc c242 81b9 af5d 25be 1b77 cf3c

weight f4 [100]
1.2719814 1.3675771 1.0354872 1.04511 1.3065674 1.4433986 1.2189901 1.3311051
1.6426318 1.4928733 1.2821583 1.3000016 1.1950009 1.2315811 1.1480193 1.2726488
1.2943724 1.2726319 1.2805781 1.3374943 1.3235257 1.1635044 1.1030136 1.2749325
1.2095218 1.3890651 1.283101 1.1933872 1.2862098 1.1622621 1.2919626 1.3173901
1.3409715 1.247801 1.3634359 1.3325984 1.4387672 1.5080577 1.1685983 1.2660291
1.3556387 1.2598593 1.2597729 1.3151385 1.3187655 1.2858137 1.1345586 1.1597905
1.325486 1.2043079 1.3758335 1.2460423 1.0995266 1.296807 1.2862427 1.1697347
1.1868014 1.3167225 1.1662774 1.3125724 1.276221 1.1199259 1.2309892 1.1261748
1.1649514 1.2717538 1.1849362 1.3178216 1.3383238 1.2334908 1.1893908 1.2914158
1.2326229 1.2465913 1.2297506 1.406319 1.2661445 1.2816695 1.2177981 1.250834
1.2762159 1.2156098 1.3669356 1.171138 1.2051568 1.2800615 1.3443564 1.1201321
1.2190936 1.2400124 1.2629545 1.1738132 1.3771683 1.2191426 1.2312096 1.2469441
1.1526613 1.2748321 1.2432349 1.4099249
00000000: 49d0 a23f c40c af3f d88a 843f 2ac6 853f
00000010: 9a3d a73f 49c1 b83f de07 9c3f a761 aa3f
00000020: c241 d23f 7916 bf3f c31d a43f 7466 a63f
00000030: caf5 983f 73a4 9d3f 4cf2 923f 28e6 a23f
00000040: ffad a53f 9ae5 a23f fce9 a33f 0333 ab3f
00000050: 4a69 a93f b6ed 943f 8d2f 8d3f fd30 a33f
00000060: 9cd1 9a3f e3cc b13f a73c a43f e9c0 983f
00000070: 86a2 a43f 01c5 943f 085f a53f 3da0 a83f
00000080: f4a4 ab3f f1b7 9f3f 1185 ae3f 9692 aa3f
00000090: 8629 b83f 0908 c13f a194 953f 3e0d a23f
000000a0: 9285 ad3f 1243 a13f 3d40 a13f 7556 a83f
000000b0: 4fcd a83f 8b95 a43f 3739 913f 0474 943f
000000c0: 86a9 a93f c326 9a3f 501b b03f 507e 9f3f
000000d0: 4abd 8c3f c6fd a53f 9aa3 a43f deb9 953f
000000e0: 1ce9 973f 5d8a a83f 9448 953f 5f02 a83f
000000f0: 365b a33f bb59 8f3f 0e91 9d3f 7f26 903f
00000100: 211d 953f d4c8 a23f fdab 973f 61ae a83f
00000110: 324e ab3f 07e3 9d3f f53d 983f 1d4d a53f
00000120: 96c6 9d3f 4e90 9f3f 7868 9d3f 4302 b43f
00000130: 0611 a23f bf0d a43f cfe0 9b3f 541b a03f
00000140: 0b5b a33f 1a99 9b3f bff7 ae3f dae7 953f
00000150: 9442 9a3f 0ed9 a33f df13 ac3f 7d60 8f3f
00000160: 420b 9c3f bab8 9e3f 7ea8 a13f 833f 963f
00000170: 0d47 b03f dd0c 9c3f 4798 9d3f dd9b 9f3f
00000180: 688a 933f b32d a33f 5222 9f3f 6b78 b43f

bias f4 [100]
0.045239955 -0.10214214 0.14321607 -0.21104509 0.045448955 0.11011752 -0.22435726 0.035690367
0.08194825 0.119844906 0.1685265 0.19322407 -0.047194134 0.16282019 -0.0051992293 0.21573748
0.058155205 -0.050008558 -0.0836026 -0.086204685 0.16838388 -0.12446889 0.12514359 0.0070591196
0.08740227 0.018238831 0.028091224 -0.16702679 -0.01291835 0.0009421989 -0.19192754 0.2021823
-0.101146944 -0.1571355 0.26090792 0.0023860135 0.24300992 0.15003893 0.13792107 -0.02969709
-0.12733436 -0.22925091 -0.088509336 -0.10292076 0.1272701 -0.17283283 0.15876621 0.20873947
-0.22413094 0.008476002 -0.16833176 0.04148577 -0.15562347 -0.027834928 -0.24381448 -0.096492
-0.22419105 -0.14024343 -0.1537244 0.15371466 -0.045307394 -0.23102544 -0.19947688 0.24120244
-0.19464324 -0.07350685 0.16105027 -0.17125076 0.01791027 -0.04507406 -0.16147777 0.18331794
0.20084167 0.0870933 -0.14093249 0.049632013 -0.20644768 -0.1958504 -0.16567597 0.104997024
0.22738427 -0.2647853 0.20067829 0.14600301 0.022753783 0.039840706 0.22400269 0.005314064
0.14483243 0.26790473 0.18092772 -0.12307475 0.18931162 -0.12720704 -0.22950763 -0.035129376
0.017956331 0.1114589 0.051110487 -0.02462212
00000000: 884d 393d e62f d1bd 3ca7 123e 341c 58be
00000010: af28 3a3d 4b85 e13d e9bd 65be 1030 123d
00000020: 7cd4 a73d 3f71 f53d 3692 2c3e 88dc 453e
00000030: a34e 41bd 56ba 263e 4c5e aabb 49ea 5c3e
00000040: 2734 6e3d c6d5 4cbd d737 abbd 158c b0bd
00000050: d36c 2c3e 8ce9 febd a425 003e 3050 e73b
00000060: f6ff b23d 9a69 953c 911f e63c 1209 2bbe
00000070: 7da7 53bc e6fd 763a a788 44be e008 4f3e
00000080: 2126 cfbd 21e8 20be b995 853e aa5e 1c3b
00000090: 98d7 783e cea3 193e 2e3b 0d3e 5047 f3bc
000000a0: f063 02be c0c0 6abe 6244 b5bd 1fc8 d2bd
000000b0: 1853 023e 17fb 30be 9c93 223e cdbf 553e
000000c0: 9582 65be eede 0a3c 295f 2cbe fcec 293d
000000d0: c25b 1fbe 1306 e4bc 81aa 79be 999d c5bd
000000e0: 5792 65be f99b 0fbe ee69 1dbe 6067 1d3e
000000f0: 3f94 39bd ef91 6cbe ab43 4cbe c6fd 763e
00000100: 8f50 47be c28a 96bd 5dea 243e 5c5c 2fbe
00000110: 8fb8 923c 949f 38bd 6e5a 25be b3b7 3b3e
00000120: 70a9 4d3e f95d b23d 9b50 10be f04a 4b3d
00000130: 0567 53be 028d 48be f6a6 29be ae08 d73d
00000140: 6cd7 683e f091 87be 9c7e 4d3e d081 153e
00000150: 2466 ba3c 0230 233d f660 653e 9a21 ae3b
00000160: f44e 143e cf2a 893e 1e45 393e 9d0e fcbd
00000170: e8da 413e 9042 02be 0c04 6bbe d2e3 0fbd
00000180: 2819 933c 9044 e43d 3b59 513d 54b4 c9bc

running_mean f4 [100]
0.60661006 1.347458 0.26966807 0.6543635 0.7321971 1.0107441 0.44791722 0.39490327
0.5267477 0.6486123 1.008065 0.8781842 0.92542845 1.3356733 0.80118746 0.630698
1.3358418 1.0824947 0.70304495 0.8337744 0.46267232 0.7932717 0.706699 0.6812851
0.22500454 1.4986386 0.9475127 0.83332396 1.3070887 0.65329784 0.66210306 1.0062286
0.5220488 0.9598064 1.513147 0.70621294 0.72492117 0.57738537 0.49912366 0.90388083
0.899358 1.0493675 1.0610322 0.5834871 0.5081733 0.86738265 0.7324107 0.7163359
1.2102878 0.9159531 0.5698351 0.5657371 0.6908127 0.80867946 1.0652083 0.89086455
0.8785198 1.4398478 0.7460384 0.42564037 0.3430463 0.43754086 1.020153 0.5582982
1.1284162 0.7130643 0.65523154 0.73032075 1.4337285 0.7445392 1.1499047 1.0936546
0.49316192 1.338979 0.3579365 1.0105865 0.5862476 0.58740675 0.36458772 0.67082906
0.9204541 0.37434855 0.36744887 0.66749346 0.62178826 1.1411893 1.0435737 0.9505474
0.5397923 0.4918866 1.1961722 0.54592395 0.52681816 0.3092752 0.67833173 0.55473685
0.43467912 0.83628976 0.7423783 1.2513003
00000000: cc4a 1b3f 8179 ac3f ef11 8a3e 5e84 273f
00000010: 4571 3b3f 1060 813f 6855 e53e c330 ca3e
00000020: f0d8 063f 750b 263f 4608 813f aed0 603f
00000030: e1e8 6c3f 58f7 aa3f 9f1a 4d3f 6d75 213f
00000040: ddfc aa3f 308f 8a3f c1fa 333f 3d72 553f
00000050: 63e3 ec3e db13 4b3f 3aea 343f b368 2e3f
00000060: 9767 663e 64d3 bf3f 3190 723f b854 553f
00000070: af4e a73f 873e 273f 967f 293f 19cc 803f
00000080: fda4 053f dfb5 753f cdae c13f 5fca 343f
00000090: 6f94 393f 87cf 133f 238d ff3e bc64 673f
000000a0: 533c 663f ad51 863f e7cf 873f 695f 153f
000000b0: a517 023f ca0c 5e3f 457f 3b3f ca61 373f
000000c0: b6ea 9a3f e77b 6a3f b7e0 113f 26d4 103f
000000d0: 1ad9 303f 9e05 4f3f bf58 883f b30f 643f
000000e0: ace6 603f ef4c b83f 5ffc 3e3f 89ed d93e
000000f0: c4a3 af3e 5b05 e03e 6094 823f a1ec 0e3f
00000100: f16f 903f 628b 363f 41bd 273f 4df6 3a3f
00000110: 6a84 b73f 1f9a 3e3f 1430 933f e0fc 8b3f
00000120: b87f fc3e aa63 ab3f 7443 b73e e65a 813f
00000130: 5314 163f 4a60 163f 3eab ba3e 74bb 2b3f
00000140: e1a2 6b3f 9daa bf3e 4222 bc3e dae0 2a3f
00000150: 842d 1f3f 7e12 923f d393 853f 1357 733f
00000160: d42f 0a3f 8fd8 fb3e 2c1c 993f acc1 0b3f
00000170: 8edd 063f 5259 9e3e 26a7 2d3f 3c03 0e3f
00000180: 438e de3e 1617 563f 810c 3e3f 9c2a a03f

running_var f4 [100]
0.9668413 3.8609934 0.32367855 1.1768543 1.6652215 1.3915973 0.8323386 0.8393302
1.160894 1.5767974 1.8216865 1.3636075 2.3880486 3.4942584 1.1944926 1.2467881
2.9758446 2.6021476 1.9413098 1.3758165 0.9249661 1.4880067 1.2275738 1.500588
0.31227228 3.5409799 1.6892302 3.13829 3.038708 1.1625073 0.90263003 3.4996183
1.2429652 1.608326 3.9186656 1.1462682 2.0595033 1.3855516 0.72538006 1.7270584
3.7478442 1.7521976 2.2882848 0.9839753 0.9651657 1.5952556 1.111163 1.2695531
2.7343106 1.3419037 1.0600616 0.7232327 0.951334 1.0875773 2.1884184 1.8872013
2.0183396 2.8715446 1.0809225 0.89168847 0.63279635 0.8229605 1.9801975 0.7203024
1.7590909 1.8068051 1.0520355 1.439713 4.472947 1.4926966 3.0451324 2.655953
0.74053556 1.8798269 0.5244167 2.6255658 0.99963766 0.993457 0.542501 1.0381889
2.545427 0.6509655 0.6860735 1.2782533 0.8762568 2.5907266 3.0387053 1.4154389
0.753679 0.8204911 2.8138716 1.0800298 1.1005067 0.49820045 1.3800968 1.2724521
0.5018292 1.7730844 1.1364132 3.715028
00000000: e982 773f 841a 7740 32b9 a53e 29a3 963f
00000010: fa25 d53f dc1f b23f 2414 553f 58de 563f
00000020: 2d98 943f 7fd4 c93f 062d e93f b18a ae3f
00000030: cad5 1840 eea1 5f40 22e5 983f c196 9f3f
00000040: 3d74 3e40 9689 2640 d77c f83f c11a b03f
00000050: 94ca 6c3f 0177 be3f 2321 9d3f 4513 c03f
00000060: 27e2 9f3e 6a9f 6240 b238 d83f bed9 4840
00000070: 317a 4240 0acd 943f c312 673f bff9 5f40
00000080: 7c19 9f3f a0dd cd3f 6bcb 7a40 ebb8 923f
00000090: e7ce 0340 c159 b13f 82b2 393f 4010 dd3f
000000a0: aedc 6f40 0348 e03f 4273 1240 cee5 7b3f
000000b0: 1915 773f 5631 cc3f 973a 8e3f b780 a23f
000000c0: f2fe 2e40 80c3 ab3f 19b0 873f c725 393f
000000d0: a08a 733f bc35 8b3f 0c0f 0c40 d08f f13f
000000e0: 7a2c 0140 63c7 3740 ab5b 8a3f b245 643f
000000f0: f1fe 213f 8aad 523f 1d77 fd3f bd65 383f
00000100: e429 e13f 6445 e73f 19a9 863f 8448 b83f
00000110: 6222 8f40 af10 bf3f 73e3 4240 22fb 2940
00000120: bd93 3d3f 2b9e f03f 2c40 063f 4509 2840
00000130: 41e8 7f3f 3353 7e3f 58e1 0a3f 60e3 843f
00000140: 47e8 2240 ada5 263f 83a2 2f3f ce9d a33f
00000150: 5e52 603f 77ce 2540 267a 4240 1a2d b53f
00000160: 1bf1 403f b40b 523f 7916 3440 6b3e 8a3f
00000170: 67dd 8c3f 2114 ff3e 03a7 b03f b6df a23f
00000180: e177 003f 6ef4 e23f fd75 913f 05c3 6d40

weight f4 [8, 100]
-0.104036026 0.16265076 0.02206369 -0.011900387 0.1453188 0.13731037 -0.081826165 -0.01272422
-0.19695434 -0.04148703 0.08799217 -0.15249096 0.09488237 0.045322772 0.17238477 -0.2133189
0.08065236 -0.06838345 -0.007647953 0.16156913 -0.15503386 0.09348048 -0.038066875 -0.13000104
0.1583946 -0.011045944 0.13755096 -0.07343693 0.058352813 -0.21689531 0.16118212 -0.2258008
-0.031474322 0.094128214 0.07642429 0.12842464 -0.008564901 -0.3200042 0.035697266 -0.09878557
0.033493996 0.23526119 0.18685442 -0.096141055 -0.263378 0.08793411 -0.28165275 -0.07446954
0.2038564 0.11895843 -0.058493353 0.07750327 -0.17444374 -0.092575245 0.2509471 0.12998751
0.08990075 0.18140115 -0.011442591 -0.058299515 -0.038150493 -0.06117561 0.24312018 -0.14761025
0.075758964 -0.030628866 -0.054398645 -0.051359467 0.17077631 0.20562273 0.070432656 -0.10586781
-0.26397803 0.16488919 -0.18925701 0.050591912 -0.006497475 0.041128784 -0.1544763 0.02502634
-0.09199055 0.21874964 -0.37873307 0.014598014 -0.0056721894 0.020916749 -0.2141936 0.10507125
-0.050103143 -0.13994414 -0.035688967 -0.112563014 -0.2608802 0.042264964 0.2808968 0.035561994
-0.10435546 -0.05274869 -0.17251414 -0.014598375 -0.31832498 0.054828968 0.03130859 -0.06403927
0.04752819 0.14084274 -0.2137509 -0.0026671765 0.057714682 -0.24840586 0.14566147 0.15332653
-0.0064896224 0.21318716 0.08463978 0.08972715 0.12890542 0.06312434 -0.08546914 0.14878508
0.21021917 -0.1510126 0.11682998 -0.11037903 -0.2094553 0.14572026 0.09907092 -0.12968525
0.17360076 -0.09420567 -0.19804075 0.20432615 -0.3080445 0.026082007 0.17390919 0.04324692
0.2548599 -0.041364092 0.16041858 0.055750366 -0.2792966 -0.0026857317 0.02741492 -0.29044166
0.020052953 -0.023940014 0.17151828 0.19827437 -0.0019246287 0.0762567 -0.18611544 -0.26470575
-0.0154893575 -0.22399524 -0.034184106 0.02939792 -0.25446984 -0.009556547 -0.12203767 0.16898878
-0.32579994 -0.17480479 0.06516727 0.11472641 0.0049200146 0.10377544 0.19140674 -0.2706698
0.08530627 0.19983992 -0.11596484 -0.006615404 0.111019775 0.05016625 -0.15860824 0.16215484
-0.19025256 -0.2876258 0.03244211 0.056361817 0.039494447 -0.2827289 0.15932827 0.23696597
0.06751973 -0.26968575 0.22048122 -0.0205703 -0.16657852 0.060946666 0.013927621 -0.22972381
0.17529912 -0.20766205 -0.18957646 -0.23271932 -0.16605859 -0.2842941 -0.28538647 0.017716734
0.0015401508 0.14689344 0.060489655 -0.07881713 -0.19336788 -0.04453643 -0.1646364 0.2607894
-0.44975725 0.31929952 -0.19822335 0.1529228 -0.12572682 -0.14064601 0.062683016 0.26548222
0.14263414 -0.23498735 -0.0068629766 -0.058079522 -0.288347 0.058022212 -0.10735436 0.27729124
0.10080358 0.13372791 0.18814422 0.1755442 0.1421862 0.14692275 0.120209776 -0.24855706
-0.14249533 0.22158952 0.045183215 0.04403612 -0.1940412 -0.40230635 -0.041596662 0.033216745
0.19035311 -0.26075867 0.21325181 0.20311317 -0.021588339 0.2791682 -0.01685908 -0.25098416
0.097184874 -0.017090056 0.2414079 0.23677932 -0.043124873 0.2234284 -0.078787595 -0.23591931
00000000: d710 d5bd ec8d 263e e9be b43c d7f9 42bc
00000010: 74ce 143e 179b 0c3e 7a94 a7bd 3f79 50bc
00000020: 66ae 49be 4eee 29bd 3d35 b43d 9726 1cbe
00000030: b051 c23d 5fa4 393d a285 303e 4570 5abe
00000040: 112d a53d 9f0c 8cbd ae9b fabb 6172 253e
00000050: 32c1 1ebe b272 bf3d 03ec 1bbd fe1e 05be
00000060: 3232 223e 0cfa 34bc 29da 0c3e 1a66 96bd
00000070: 5c03 6f3d ce19 5ebe ed0c 253e 5338 67be
00000080: 38eb 00bd 4bc6 c03d 5784 9c3d c081 033e
00000090: cc53 0cbc 97d7 a3be 4c37 123d 1750 cabd
000000a0: 0031 093d 4fe8 703e c456 3f3e 9ae5 c4bd
000000b0: 7bd9 86be cc16 b43d ca34 90be 7c83 98bd
000000c0: bbbf 503e 7aa0 f33d ba96 6fbd 09ba 9e3d
000000d0: 61a1 32be 1798 bdbd 237c 803e 721b 053e
000000e0: e21d b83d 39c1 393e b579 3bbc 79cb 6ebd
000000f0: b143 1cbd 4793 7abd 7ff4 783e 2427 17be
00000100: 8427 9b3d 63e9 fabc 1dd1 5ebd 4e5e 52bd
00000110: fcdf 2e3e c48e 523e ff3e 903d 39d1 d8bd
00000120: 2128 87be b6d8 283e 97cc 41be 7739 4f3d
00000130: c5e8 d4bb a876 283d 092f 1ebe 0a04 cd3c
00000140: 8b65 bcbd e8ff 5f3e 4de9 c1be 822c 6f3c
00000150: c6dd b9bb 9a59 ab3c 9155 5bbe 982f d73d
00000160: f438 4dbd 844d 0fbe 982e 12bd 7087 e6bd
00000170: 1792 85be 071e 2d3d b5d1 8f3e 74a9 113d
00000180: 51b8 d5bd 030f 58bd 8ca7 30be 062e 6fbc
00000190: 7efb a2be 5794 603d 703d 003d 0527 83bd
000001a0: ebac 423d 1439 103e 84e1 5abe cccb 2ebb
000001b0: 3b66 6c3d 1b5e 7ebe 4828 153e a101 1d3e
000001c0: e6a6 d4bb bc4d 5a3e 9f57 ad3d dec2 b73d
000001d0: c8ff 033e 5547 813d 720a afbd 1e5b 183e
000001e0: b243 573e 0ca3 1abe 8e44 ef3d 670e e2bd
000001f0: 737b 56be b137 153e b2e5 ca3d 36cc 04be
00000200: 66c4 313e e7ee c0bd 32cb 4abe e03a 513e
00000210: 02b8 9dbe efa9 d53c 4015 323e af23 313d
00000220: ff7c 823e 656d 29bd c544 243e 7f5a 643d
00000230: f7ff 8ebe 1a03 30bb 4195 e03c c5b4 94be
00000240: 1746 a43c d91d c4bc 7da2 2f3e 7008 4b3e
00000250: d343 fcba 792c 9c3d 0c95 3ebe 8387 87be
00000260: 13c7 7dbc 025f 65be a204 0cbd e8d3 f03c
00000270: df49 82be 1093 1cbc e3ee f9bd 650b 2d3e
00000280: 40cf a6be 0700 33be 6b76 853d aef5 ea3d
00000290: 1338 a13b 3888 d43d 2100 443e 3b95 8abe
000002a0: 0eb5 ae3d d6a2 4c3e f97e edbd 08c6 d8bb
000002b0: 565e e33d 207b 4d3d 336a 22be eb0b 263e
000002c0: 91d1 42be b043 93be 05e2 043d a6db 663d
000002d0: eec4 213d d8c1 90be f326 233e 35a7 723e
000002e0: c947 8a3d 4014 8abe d4c5 613e 0c83 a8bc
000002f0: 8f93 2abe 36a3 793d ad30 643c b83c 6bbe
00000300: 9d81 333e 5ca5 54be 5520 42be f94d 6ebe
00000310: 430b 2abe ff8e 91be 2d1e 92be af22 913c
00000320: e3de c93a 3c6b 163e 00c4 773d e06a a1bd
00000330: 3b02 46be d56b 36bd 7296 28be 3086 853e
00000340: 9546 e6be 3a7b a33e 10fb 4abe cb97 1c3e
00000350: 88be 00be 8205 10be f45f 803d 49ed 873e
00000360: af0e 123e 86a0 70be d2e2 e0bb cbe4 6dbd
00000370: 38a2 93be b3a8 6d3d 9adc dbbd 1ef9 8d3e
00000380: 1b72 ce3d f8ef 083e e1a8 403e dcc1 333e
00000390: 4299 113e eb72 163e 8b30 f63d be85 7ebe
000003a0: 4cea 11be 5de8 623e 0912 393d 385f 343d
000003b0: bdb2 46be 19fb cdbe 4361 2abd 480e 083d
000003c0: edeb 423e 2982 85be af5e 5a3e e6fc 4f3e
000003d0: 07da b0bc 22ef 8e3e 0e1c 8abc ff80 80be
000003e0: dd08 c73d 7200 8cbc a233 773e 4776 723e
000003f0: b5a3 30bd 6aca 643e 645b a1bd d594 71be

bias f4 [8]
-0.15024453 0.14697684 0.07448601 -0.086171664 0.0644866 0.25214356 0.070339546 -0.113417946
00000000: b4d9 19be 1981 163e 1f8c 983d c57a b0bd
00000010: 8d11 843d f618 813e 2e0e 903d ab47 e8bd
